Model: "sequential"
_________________________________________________________________
Layer (type)                 Output Shape              Param #   
=================================================================
dense (Dense)                (None, 8)                 32        
_________________________________________________________________
dense_1 (Dense)              (None, 16)                144       
_________________________________________________________________
dense_2 (Dense)              (None, 16)                272       
_________________________________________________________________
dense_3 (Dense)              (None, 16)                272       
_________________________________________________________________
dense_4 (Dense)              (None, 1)                 17        
=================================================================
Total params: 737
Trainable params: 737
Non-trainable params: 0
_________________________________________________________________
--- the Test loss is [0.00019458266615401953, 0.008081160485744476]
--- mean relative error: 1.86%, standard deviation of relative error: 2.59%
the best validation loss is 3.664598261821084e-05
…
