…
Ra_number (InputLayer)          [(None, 1)]          0                                            
__________________________________________________________________________________________________
Pr_number (InputLayer)          [(None, 1)]          0                                            
__________________________________________________________________________________________________
Hollow_width (InputLayer)       [(None, 1)]          0                                            
__________________________________________________________________________________________________
4_nodes_hidden_layer_1 (Dense)  (None, 4)            8           Ra_number[0][0]                  
__________________________________________________________________________________________________
4_nodes_hidden_layer_4 (Dense)  (None, 4)            8           Pr_number[0][0]                  
__________________________________________________________________________________________________
4_nodes_hidden_layer_7 (Dense)  (None, 4)            8           Hollow_width[0][0]               
__________________________________________________________________________________________________
16_nodes_hidden_layer_2 (Dense) (None, 16)           80          4_nodes_hidden_layer_1[0][0]     
__________________________________________________________________________________________________
16_nodes_hidden_layer_5 (Dense) (None, 16)           80          4_nodes_hidden_layer_4[0][0]     
__________________________________________________________________________________________________
16_nodes_hidden_layer_8 (Dense) (None, 16)           80          4_nodes_hidden_layer_7[0][0]     
__________________________________________________________________________________________________
16_nodes_hidden_layer_3 (Dense) (None, 16)           272         16_nodes_hidden_layer_2[0][0]    
__________________________________________________________________________________________________
16_nodes_hidden_layer_6 (Dense) (None, 16)           272         16_nodes_hidden_layer_5[0][0]    
__________________________________________________________________________________________________
16_nodes_hidden_layer_9 (Dense) (None, 16)           272         16_nodes_hidden_layer_8[0][0]    
__________________________________________________________________________________________________
Nu_Ra_ (Dense)                  (None, 1)            17          16_nodes_hidden_layer_3[0][0]    
__________________________________________________________________________________________________
Nu_Pr_ (Dense)                  (None, 1)            17          16_nodes_hidden_layer_6[0][0]    
__________________________________________________________________________________________________
Nu_d_ (Dense)                   (None, 1)            17          16_nodes_hidden_layer_9[0][0]    
__________________________________________________________________________________________________
Nu_Ra_Nu_Pr_Nu_d_ (Concatenate) (None, 3)            0           Nu_Ra_[0][0]                     
                                                                 Nu_Pr_[0][0]                     
                                                                 Nu_d_[0][0]                      
__________________________________________________________________________________________________
16_nodes_hidden_layer_10 (Dense (None, 16)           64          Nu_Ra_Nu_Pr_Nu_d_[0][0]          
__________________________________________________________________________________________________
16_nodes_hidden_layer_11 (Dense (None, 16)           272         16_nodes_hidden_layer_10[0][0]   
__________________________________________________________________________________________________
output_Nu_number (Dense)        (None, 1)            17          16_nodes_hidden_layer_11[0][0]   
==================================================================================================
Total params: 1,484
Trainable params: 730
Non-trainable params: 754
__________________________________________________________________________________________________
--- the Test loss is [0.00010349413059884682, 0.004202696029096842]
--- mean relative error: 0.95%, standard deviation of relative error: 1.99%
…
